MultiTune/advisor/av_files/dqn/policy_net500.pth (torch, 175759 bytes, 8 tensors)

weight f4 [128, 263]
000000 41 86 c6 bc ae 54 40 3d bd f6 2e bd 9c d4 ae 3c
       -0.02423394 0.046955757 -0.042715777 0.021341614
000010 09 bf 86 bc 1c 42 65 bd 5a e2 55 bd a9 0e 77 bc
       -0.016448515 -0.05597125 -0.05221782 -0.015079179
000020 df 15 cf 3c ad c2 6d 3d fb 2e 45 bd 31 4e 7a 3d
       0.025278984 0.058046985 -0.048140507 0.061109725
000030 cd c3 04 bc ee 5d 22 3d 33 da f2 3c ee 75 48 3d
       -0.008103323 0.03964036 0.029645061 0.04894059
000040 4a 35 30 3d 29 48 63 bd d5 38 79 bd fe 06 9c 3c
       0.04301957 -0.05548874 -0.060845215 0.019046303
000050 94 d4 32 bd 32 c1 ad 3c 1f 70 fb bc c7 09 58 bc
       -0.04365976 0.021210287 -0.030693112 -0.013185925
000060 07 38 88 3c 52 83 27 bd 2e 76 9b bb 6f d2 57 3d
       0.016628278 -0.04089672 -0.0047443127 0.05269092
000070 7f 0c fe bc bd 32 33 bd e4 52 15 bd 3b dc 47 3d
       -0.031011818 -0.04374956 -0.036456004 0.048794013
000080 c9 e9 66 bd 57 a0 15 bd ae 84 2d 3d e9 8b e1 b9
       -0.0563753 -0.036529865 0.04236286 -0.00043019585
000090 a2 99 72 bd 8b 0c 23 3d 71 eb 05 3c 15 04 d7 bc
       -0.059228547 0.039806884 0.008173809 -0.026247064
0000a0 82 7f 6a 3d 58 f6 c6 bc b9 35 b2 bc 6c 28 72 3d
       0.057250507 -0.024287388 -0.021754133 0.05912058
0000b0 e5 e2 43 3b bf e4 a2 3c 82 30 5b bc 94 0a 1f bd
       0.0029889878 0.019884465 -0.013378264 -0.038828447
0000c0 5c 8a 4d 3d 84 cc d9 3c c4 5e 5b bd c9 90 3f bd
       0.050180778 0.026586778 -0.053557172 -0.046768937
0000d0 88 6e 20 bd 95 e8 3b bd d0 5c a2 bb f7 9e c2 3c
       -0.03916791 -0.045876104 -0.004954912 0.023757441
0000e0 9e a5 3d bd c9 a1 63 3c c9 31 73 3d 92 c7 c0 3a
       -0.046300523 0.013893553 0.05937365 0.0014707914
0000f0 1e a8 4b bd 64 e9 64 bd 8b d8 38 3d 9e 5c 19 3d
       -0.049720876 -0.05588664 0.045128386 0.037441842
000100 11 06 14 3d 08 0b 23 bd 11 9f f2 bc 12 98 9c bc
       0.036138598 -0.039805442 -0.029616864 -0.019115482
000110 bf 2f 27 bd a2 a5 84 bc 7a 67 8c 3c 41 b0 73 bd
       -0.04081702 -0.016192261 0.017139185 -0.05949426
000120 a1 9c 8a 3a 67 f5 f3 bb eb 8e 42 3d 01 3a c9 bc
       0.0010575244 -0.0074450257 0.04749958 -0.024563791
000130 cc cd 87 3c ac 36 4b 3d dc 87 97 bc 80 2a 71 3d
       0.016577624 0.049612686 -0.0184974 0.05887842
000140 3d 18 b7 bb eb 95 3b bd 49 c3 17 bb b7 28 9d bb
       -0.005587606 -0.04579727 -0.002315717 -0.0047961134
000150 71 eb 85 bb 4b 15 a5 3c 55 be 53 3d 13 d2 2e bd
       -0.0040869047 0.020151755 0.051695187 -0.04268081
000160 44 73 5a 3c 09 d0 ce b9 81 ef 74 bd c5 12 98 3b
       0.0133331455 -0.0003944638 -0.05979872 0.0046409094
000170 96 51 68 bc c8 e3 39 bd 71 0f 24 bc 1c 2a 49 3d
       -0.014179608 -0.045383245 -0.010013447 0.049112424
000180 83 33 4d 3b 47 12 26 3d 97 b0 7b 3d 9b 95 05 39
       0.003131122 0.040544774 0.061447706 0.00012739601
000190 51 f7 a9 3b 7a 95 e4 3c c0 36 46 bd 4e 9b 49 3d
       0.005186953 0.027903307 -0.048392057 0.049220376
0001a0 73 b1 05 3d 0d 6a 6c bd c0 d0 3d 3c 67 76 53 3c
       0.032639932 -0.057718325 0.011585414 0.012906647
0001b0 f0 6d 92 bc a5 57 08 bb ff bc 40 3d fd 46 48 3d
       -0.017874688 -0.0020804193 0.04705524 0.048895825
0001c0 4c 39 b6 3c 95 7f 58 bd eb 1a 13 3c e1 9b df bc
       0.022244118 -0.052856047 0.008978586 -0.027296009
0001d0 58 10 5a bd 26 13 48 bd e0 a4 67 3d e8 0c e2 bc
       -0.053238243 -0.048846386 0.05655372 -0.027594045
0001e0 50 88 b3 bb 9d ab bf bc 0c c6 91 3b f0 91 5b bd
       -0.005478896 -0.023397261 0.004448658 -0.053605974
0001f0 b6 29 58 3d d1 6a c2 bc ff 41 56 3c 70 6c 54 bc
       0.052774154 -0.023732575 0.013077258 -0.012965307
000200 73 8f af 3c 64 98 66 3d a4 57 1d 3d 95 b5 9f 3c
       0.021430707 0.056297675 0.03841366 0.019495765
000210 35 ef 95 3c 53 09 0d 3b 1a 54 14 3c fc 7b 5b 3c
       0.01830254 0.002152045 0.0090532545 0.013396259
000220 36 82 4c 3d f4 ae 49 3d 75 39 2f 3d e3 41 0f 3d
       0.049928866 0.049239114 0.042779405 0.034974944
000230 0a 64 08 bd de 1c 19 bd e0 56 94 3b 5b 2e ff bc
       -0.03329853 -0.037381046 0.004526958 -0.031150034
000240 6c 0e 4e bd f8 b9 45 3d 32 98 d3 bc 20 11 5c bd
       -0.050306723 0.048273057 -0.025829408 -0.05372727
000250 61 c0 35 bd 09 b5 11 bd 88 f6 30 bd 29 e9 ac bc
       -0.04437292 -0.03557304 -0.04320386 -0.021107273
000260 30 34 6f 3d 17 1d c8 3c b5 c7 6b 3c a9 9f 11 3d
       0.05839938 0.024427934 0.014390876 0.035552654
000270 fb d1 da 3b 1f 2d 6f bd cf bf 3f 3c a3 4c 06 3d
       0.0066778637 -0.05839264 0.011703446 0.03278793
000280 9d ec 8f bc 62 c1 3c bd e3 36 63 bd 25 a7 f0 3a
       -0.01756888 -0.04608286 -0.055472266 0.001836036
000290 ff 49 41 bd 79 a7 5a bd 13 65 73 bd 8a 01 5f bd
       -0.04718971 -0.05338237 -0.059422564 -0.054444827
0002a0 21 2a 0f 3d f6 5d 7b bd 94 b2 5e bd 02 89 76 3d
       0.034952287 -0.061368905 -0.054369524 0.060189255
0002b0 01 21 72 bd 5a c7 e3 3c cd dc 76 bd 43 d8 53 bd
       -0.059113506 0.02780502 -0.060269166 -0.051719915
0002c0 a5 c2 0c bd a9 f8 2f 3c 7d f6 37 bd d1 3c 46 3d
       -0.034365315 0.010740438 -0.044912804 0.048397843
0002d0 42 c0 50 3d 9b 98 32 3d 9b 52 47 3c 94 73 e8 3c
       0.0509646 0.043602567 0.012165691 0.028375424
0002e0 98 88 a0 bc 9d f2 74 bd 70 82 ee bc fa ed b5 3c
       -0.019596383 -0.059801687 -0.029114932 0.022208203
0002f0 c2 a7 b5 3c aa e5 0f bd 66 6b 26 bc 9f ba 04 3d
       0.02217472 -0.035131134 -0.010157442 0.03240454
000300 a6 8d 1c bd e8 5d 7b 3d d3 e1 11 bd 40 0a 6e 3d
       -0.038221024 0.061368853 -0.035615753 0.058115244
000310 1d 17 2d bd 82 b0 2c 3d d0 03 5b bd e0 6d 6e 3d
       -0.04225837 0.04216052 -0.053470433 0.058210254
000320 bb ba 1b 3d 11 15 0d 3d 69 f8 d6 3c 3d 32 72 3d
       0.038019877 0.03444392 0.026241498 0.059129942
000330 3a 8e 1b 3a 53 51 c1 3c 56 a4 80 3c 71 a1 45 bd
       0.0005933974 0.023598349 0.015703361 -0.048249666
000340 fc 4e 23 bd c1 b7 79 3b c6 7a 4b 3d 87 29 57 bd
       -0.039870247 0.003810391 0.049677633 -0.052529838
000350 18 a6 2d bd 94 6a 21 bd 2e 44 63 bd ea 4d a5 3c
       -0.042394727 -0.03940828 -0.055484943 0.020178754
000360 e5 61 69 3d 9e 5b 44 3d 43 7d 13 3d af 34 94 bc
       0.056978125 0.047938935 0.03600813 -0.018091528
000370 21 61 a0 bc e2 6c 74 3d 9a ee 67 bd a7 c4 1f bd
       -0.019577565 0.05967415 -0.056624033 -0.0390059
000380 06 e6 af 3c b1 2f 7b bd 2a 9a 47 bc 26 d9 5c bd
       0.021471988 -0.06132478 -0.012182752 -0.053918026
000390 52 9c 38 bd d9 c9 5c bd b3 11 ca bc 3f 45 64 bd
       -0.045070954 -0.053903434 -0.024666643 -0.0557301
0003a0 46 ad 21 3d 46 fc 32 bd a7 f8 69 bd 50 4f ef bc
       0.039471887 -0.043697618 -0.0571219 -0.029212624
0003b0 b8 65 c3 b9 21 bf 0a bd 98 65 b1 3c 46 62 74 bd
       -0.00037269085 -0.03387368 0.021654889 -0.059664033
0003c0 89 df 44 bd 43 74 61 3d a5 a1 54 bd 6c c2 97 3a
       -0.048064742 0.055042516 -0.05191197 0.0011578328
0003d0 94 5e 7b 3c c0 c9 06 bd 7b 2c b5 bc 1e d2 13 bd
       0.015342373 -0.032907248 -0.022115937 -0.036089055
0003e0 65 f3 36 bd 71 ba 05 3d b8 46 94 bc 8d 76 2a 3d
       -0.044665713 0.032648508 -0.018100128 0.041616965
0003f0 b1 09 fc bb 4d d8 56 3c 65 27 e8 bc c4 dc 81 3c
       -0.007691585 0.013113094 -0.028339097 0.01585234

bias f4 [128]
000000 76 ca 17 bd 18 02 35 3d 70 4d 63 bd 31 01 65 3d
       -0.037058316 0.04419145 -0.055493772 0.05590934
000010 a1 87 1d 3d 06 20 08 bc b9 72 75 3a b1 f1 69 3d
       0.038459424 -0.008308416 0.00093631033 0.05711526
000020 5a 66 71 bd 6d 9c a1 3a 4e 6b df 39 2d fe 50 bd
       -0.0589355 0.0012329944 0.00042613823 -0.05102365
000030 c0 aa 92 3b c7 0f 0c 3c 92 ae 54 bd 48 1f 97 3c
       0.0044759214 0.0085486835 -0.051924296 0.018447533
000040 50 14 d5 3b 1f 5b 73 bc 98 41 49 bd ef c4 42 bc
       0.0065026656 -0.014853268 -0.04913482 -0.011887773
000050 cd 1a 40 bd bc 62 e9 3c 9e 35 ce 3c cd e4 0f 3d
       -0.04690056 0.028489463 0.025172051 0.03513031
000060 60 34 7c 3d 61 34 05 bd 89 a1 c3 3b a0 f0 11 bc
       0.061573386 -0.032520656 0.005970184 -0.008907467
000070 93 3e 55 3d 92 af a5 3c 1c e3 6b 3d 49 d9 19 bc
       0.05206163 0.02022532 0.057589635 -0.009390184
000080 9c 7e 3d bd 3e 9a 16 3d 7b 8c 5e 3d b7 e4 cb 3c
       -0.046263322 0.03676819 0.05433319 0.024889333
000090 11 26 33 3d 05 3e 14 bd 80 73 e4 3c a6 cb 36 3d
       0.043737475 -0.03619196 0.027887106 0.044627808
0000a0 56 ef 46 3d 03 de 1d 3d 88 e6 2b bc f3 d4 27 bd
       0.048568092 0.038541805 -0.010491975 -0.04097457
0000b0 0e c8 59 3d 6a 15 a7 bc 68 ea 7e 3c 25 e9 3f 3d
       0.053169303 -0.020395953 0.0155588165 0.046853203
0000c0 bf 28 21 bd b5 de 2a 3c 07 f7 06 bd 62 53 b6 bc
       -0.0393455 0.010429074 -0.032950427 -0.022256557
0000d0 96 83 30 3d f0 1e 33 bd c9 5c 33 3d 53 f0 fa 3c
       0.04309424 -0.043730676 0.04378966 0.030632174
0000e0 28 8d 2a 3c 12 18 67 bd 60 b5 28 3d 33 ae da bc
       0.010409631 -0.05641944 0.041188598 -0.026694393
0000f0 dd ab 10 bd c2 84 0b bd e3 c7 44 3d f9 ac f8 bc
       -0.03532015 -0.034062155 0.04804219 -0.030355917
000100 48 ad 1b bd 25 fb 14 3d 98 59 2d 3d bc a8 56 bd
       -0.03800705 0.036372323 0.04232177 -0.05240701
000110 f8 60 54 bd 8c 33 37 bd ea ca 36 bd 43 bb 66 3b
       -0.05185029 -0.044726893 -0.044627108 0.0035206832
000120 c0 3a 74 bd 67 d8 db bc 85 53 02 bd 0a 56 52 bb
       -0.05962634 -0.026836587 -0.03181793 -0.003209474
000130 44 2c 46 bd e7 1b be 3c 9e 65 2a 3d 2b f8 3c bd
       -0.04838206 0.023206664 0.041600816 -0.04613511
000140 c9 b9 22 3d 68 ae 3e bd cd 6a 40 3d 06 02 ce bc
       0.03972796 -0.046553046 0.046976853 -0.02514745
000150 1e ab 4f bd 4c d8 93 3c 99 e1 0b bd 75 de 96 3c
       -0.0507003 0.018047474 -0.034150694 0.018416623
000160 29 5a 73 3d 1c d4 01 3d 6a 70 d4 bc 76 64 28 3d
       0.059412155 0.031696424 -0.02593251 0.041111432
000170 e7 bc 33 3d 3f bc 35 3d 5b ad 65 bd 48 fd 7d bb
       0.043881323 0.04436898 -0.056073528 -0.0038755704
000180 11 41 62 bd 44 0f 2c bd 39 ab 3e 3c f8 1e 6b 3d
       -0.055237833 -0.042006746 0.011637502 0.05740258
000190 7b d3 0a 3d 5e d5 08 bd fd 41 cf 3b 64 19 97 bc
       0.03389309 -0.033406608 0.006325005 -0.018444724
0001a0 93 ac db bc d2 43 f0 3c 76 b9 d3 3b a2 41 21 bd
       -0.026815688 0.029329214 0.0064613177 -0.039369233
0001b0 1d d4 22 3d bf 3d 66 3d 63 6d 3b bd 2b 1b 6f 3d
       0.03975307 0.05621123 -0.045758616 0.05837552
0001c0 a5 a0 0d bd 6b 72 4a bd 96 52 a5 3c fd a2 07 3d
       -0.03457703 -0.049425524 0.020180982 0.033114422
0001d0 2b 69 4c bc 65 9b 63 bd 70 31 09 3b b4 bd 59 3c
       -0.012476246 -0.055568118 0.0020934008 0.013289858
0001e0 94 ba 1a 3d fd 5c f1 bc 9b 3c e6 ba 77 97 6a 3b
       0.03777559 -0.029463286 -0.0017565669 0.0035795846
0001f0 4d 29 50 bd ae e1 a4 3b 37 8c 51 3c db 89 74 3c
       -0.050820637 0.005031786 0.0127897775 0.014925445

weight f4 [64, 128]
000000 63 77 8e 3d eb d0 84 bd ee ab e5 bc 12 cf 98 3c
       0.06956365 -0.064851604 -0.028036084 0.018653426
000010 b6 40 8a 3d 9d f5 a0 bd 11 a3 22 3c 9d 88 e6 bc
       0.06750624 -0.07859347 0.009926573 -0.028141314
000020 fc df ae bd 18 63 91 3d 17 bb 1b 3d 0b 40 89 bd
       -0.085388154 0.07098979 0.03802022 -0.06701668
000030 48 2c 87 3c 6f 19 78 bc 20 72 a6 bd 57 46 b2 bd
       0.016500607 -0.015142783 -0.08127236 -0.087048225
000040 48 ec 87 3c 66 1f 7f bd 0f 1f 5d 3d 9f 5e b9 3c
       0.01659216 -0.062285803 0.053984698 0.022628127
000050 b0 fa 8d bd 23 a6 09 bd 52 46 44 bd 5c a3 ab bd
       -0.069325805 -0.033605706 -0.047918625 -0.08380768
000060 d9 2f 84 bd 7b 87 28 3d 5b ba 0d 3d 36 5a 1a 3d
       -0.06454439 0.04114483 0.03460155 0.037683688
000070 a0 82 7f 3d 4e 50 88 bd aa 9b 65 3b b2 78 8b bd
       0.062380433 -0.06655942 0.003503541 -0.0681013
000080 3a 5a f3 3a f1 9c 79 3d dc 09 da 3c b7 fd 40 bd
       0.0018566318 0.060940687 0.02661603 -0.04711696
000090 a7 46 07 3d b8 22 b1 bd 84 00 9c bd a8 10 a9 bc
       0.033026364 -0.086492 -0.07617286 -0.020637825
0000a0 9f b5 43 3d 63 aa 87 bc 75 d2 88 3d 38 b7 8d bc
       0.04778063 -0.016560739 0.066807665 -0.01729928
0000b0 24 63 95 bc 85 9d 50 bd b4 80 18 3d 34 ea ae bd
       -0.01823575 -0.050931472 0.037232116 -0.085407645
0000c0 08 62 99 3d 72 ff 6f bc 92 f4 8a 3d 13 6a 42 3d
       0.07489401 -0.014648305 0.06784929 0.04746444
0000d0 61 0d 46 3d 65 68 03 bd 08 76 af 3d c7 8b 26 bd
       0.048352603 -0.03208198 0.085674345 -0.040660646
0000e0 f3 1f 18 bd a4 68 1e bd ac e8 80 3a 81 d3 a9 bd
       -0.037139844 -0.03867401 0.0009834967 -0.08292294
0000f0 dd b4 8a 3d da 1f dd 3c d0 14 3a 3c 82 80 ab 3d
       0.06772778 0.026992727 0.011357501 0.0837412
000100 9e 10 33 3d 2d 4d e5 b9 1a e1 46 bc 59 e9 1b bc
       0.04371702 -0.00043735784 -0.012138629 -0.009516084
000110 b4 85 43 3d 09 07 93 3d 6b bc 7d 3d a3 4e c3 3b
       0.04773493 0.07179076 0.061947268 0.005960302
000120 a7 12 5a bd 84 5c 2b 3d 1d 88 12 bd a3 d5 28 bc
       -0.053240445 0.041836277 -0.03577434 -0.010304841
000130 c8 9f 07 bd a5 23 63 3d 41 d1 1d bd d5 0e 92 3c
       -0.033111364 0.055453915 -0.03852964 0.017829338
000140 02 26 97 bc 4b 64 08 bd 95 a9 a0 bd 6c 87 7a bd
       -0.01845074 -0.03329877 -0.07844845 -0.061164305
000150 19 3d 31 bb 1f 5d 97 bd 44 14 78 bd bb 69 f9 3c
       -0.0027044474 -0.07390808 -0.0605662 0.030445924
000160 8a 07 02 bc 67 d3 11 3d 2e 5e 11 3d be 3b d8 bc
       -0.007936368 0.035602 0.035490207 -0.026395675
000170 b1 2e 67 3d 88 83 16 bc a8 0a c5 3c cf 56 90 bd
       0.056441013 -0.009186633 0.024052933 -0.070478074
000180 14 2c 8e bd 2e 10 0e bc 08 da a2 bd 0c 7f 44 bd
       -0.06942001 -0.00867085 -0.079517424 -0.047972724
000190 84 47 4c bd c3 a6 38 bd 34 f0 96 3a 84 7b c7 3b
       -0.04987289 -0.04508091 0.0011515678 0.0060877223
0001a0 84 00 d5 bc e0 36 a5 bd 1e 22 76 3d a0 73 fa 3c
       -0.026001222 -0.08067107 0.06009113 0.030572712
0001b0 b7 99 79 3d 45 2d 69 3d 74 af ae 3d 60 1e c7 3c
       0.06093761 0.056927938 0.08529559 0.024306476
0001c0 0a 3d 21 bd 91 40 03 bd 36 26 bc bc 7a e3 03 3d
       -0.039364852 -0.032043997 -0.02296744 0.03219936
0001d0 f2 6b 78 3d f9 63 62 3d cd d5 70 bd 9c ef b2 3d
       0.06064982 0.055271123 -0.058797646 0.08737108
0001e0 fa f4 a7 bc f2 33 7d 3b ea 40 2a 3c bb 6e af bd
       -0.020502556 0.0038635698 0.010391453 -0.08566042
0001f0 7e c8 8e bc c6 cc b5 bc c3 ac 16 3d b5 41 b7 ba
       -0.017429586 -0.02219237 0.036785852 -0.0013981374
000200 dc 04 ec 3b 0c 53 77 3d d5 00 80 3c c4 d2 8a 3c
       0.0072027277 0.060381934 0.015625397 0.016946204
000210 76 65 11 3d 81 d8 d7 ba d2 5d ba 3b 86 83 96 bd
       0.03549715 -0.0016467721 0.005687454 -0.07349305
000220 2f c3 76 3d 20 bb 12 bd 6a 3c a8 bc 9e c9 7a bd
       0.060244735 -0.035822988 -0.02053662 -0.061227433
000230 7e 8e a5 3d bc b5 b0 bd 3f 2b 86 bc 72 0d 37 bd
       0.08083819 -0.08628413 -0.016378043 -0.044690557
000240 c4 61 6e bd f6 02 4a 3b c3 d2 4c bd 2f be 38 3d
       -0.058198705 0.0030824519 -0.050005686 0.04510325
000250 f5 07 bd 3c d0 da c0 3b 13 83 79 bd e4 e4 33 bc
       0.023075083 0.0058854595 -0.060916018 -0.010979865
000260 00 73 a2 3d d1 ea a9 bd 3f 9b 1b bd 84 d5 2e 3c
       0.07932091 -0.08296741 -0.03798985 0.010671023
000270 7e c2 6d bd d3 03 78 3a a4 41 8d 3c 3f 8c 60 3b
       -0.05804681 0.0009461019 0.017243214 0.003426328
000280 b6 28 16 bd 77 e9 89 bd 81 27 a5 bd 9d c6 b8 b8
       -0.03665992 -0.06733983 -0.080641754 -8.810798e-05
000290 07 b7 12 3d ef 79 98 3d 42 24 60 bc a0 35 40 3d
       0.03581908 0.07445132 -0.01368052 0.04692614
0002a0 e7 cb 50 bd 2b e2 cd 3c f6 53 58 3d 20 4e 0d bd
       -0.050975706 0.02513226 0.052814446 -0.034498334
0002b0 84 b1 1a bb 9c d8 0a 3d 2d 23 95 bd a0 42 41 3d
       -0.0023604343 0.03389798 -0.072821 0.04718268
0002c0 51 62 27 bc 94 83 8c bd d8 a6 fa 3b 43 dc 87 3d
       -0.010216312 -0.06861034 0.007649284 0.066338085
0002d0 c9 68 98 bd f8 aa f3 3c 6d f4 76 bd b3 58 22 bd
       -0.07441861 0.02974461 -0.060291696 -0.03963537
0002e0 7d c0 48 3d c5 4c 6b 3d ec 73 67 3d d8 ac 26 3d
       0.049011696 0.05744626 0.056507036 0.04069218
0002f0 5d c4 9d 3d 7b 18 ab 3d fa 7e 4d 3d 68 ed 5c 3b
       0.07703469 0.08354279 0.050169922 0.003371084
000300 bc 59 7d bd 64 3f 32 bd 52 8c 49 3d 43 29 25 bd
       -0.061853155 -0.043517485 0.049206086 -0.040322553
000310 29 76 2f 3c df 6e 39 3d 6c 9c 14 bc 1b 35 b8 3c
       0.010709324 0.04527175 -0.009070497 0.02248626
000320 23 d9 72 3d 08 fa 63 bc 46 63 a7 3d dd cc 8e 3d
       0.05928911 -0.013914593 0.08173232 0.06972668
000330 d4 c4 5d 3d 07 d8 60 bd b4 f6 52 bd ee 23 c6 3c
       0.054142788 -0.05489352 -0.051504806 0.024187054
000340 52 c8 09 3d 5b a4 14 bd de b8 7e bd 2b 00 98 bd
       0.033638306 -0.036289554 -0.06218802 -0.07421907
000350 64 c6 00 bd 9c 5c ca 3c 2f 05 fa bb 49 0e 1a bd
       -0.0314392 0.024702363 -0.0076300125 -0.03761128
000360 60 b5 9b bc 1a 6a 88 3d 9c d0 2a 3d 6a df 98 3d
       -0.019007385 0.06660862 0.04170285 0.07464488
000370 6f af 73 bd 4d e6 30 bc ef fa a1 bd 0e a1 80 3c
       -0.05949348 -0.0107970955 -0.0790919 0.015701797
000380 48 c8 9d bd 52 f5 9d bd ab c4 43 3d 7a 71 9c 3d
       -0.07704216 -0.07712807 0.04779498 0.076388314
000390 44 0d a6 bd 4e 0e 6e bd 92 e5 58 bd 8c af ad bd
       -0.08107999 -0.05811911 -0.05295331 -0.084807485
0003a0 e6 64 06 3c e5 fc e9 bc 72 e8 68 3d af 2e 5a 3d
       0.008202767 -0.028562972 0.056862302 0.053267177
0003b0 80 13 1a 3d c1 72 1b bd 12 ae a1 bd 26 af 23 b9
       0.037616253 -0.037951235 -0.078945294 -0.00015610139
0003c0 21 38 30 3d 25 ef 86 bd 5f 3a 11 3d b8 8e 6d 3a
       0.04302228 -0.06588582 0.035456058 0.0009062099
0003d0 50 79 a5 bd b6 8f 86 3d 79 24 3b bd 49 7c 89 3c
       -0.08079779 0.065703794 -0.04568908 0.016782897
0003e0 f7 d2 32 3d 63 e2 ab bd 6c c2 a7 bd 27 63 87 bd
       0.043658223 -0.08392789 -0.0819138 -0.06610709
0003f0 ac 0e 24 3d c2 60 60 3b ac 6d 7c bd d0 a4 a7 3d
       0.040053055 0.003423736 -0.06162803 0.08185732

bias f4 [64]
000000 80 10 8c 3b be 8e 36 3d 69 6d d5 3c d6 11 02 bb
       0.004274428 0.044569723 0.026053147 -0.0019847057
000010 2c 3f 4d bd d2 06 19 3c c8 df b4 bc b7 24 37 bc
       -0.050109074 0.009340005 -0.022079363 -0.011178187
000020 b3 53 23 bd e8 04 a6 bd 27 4e 92 bd f1 82 1f bd
       -0.039874744 -0.081064045 -0.071438126 -0.038943235
000030 b8 80 eb 3c 3b 73 8d bd b9 20 92 3d 0f 51 a4 3d
       0.028747901 -0.06906744 0.071351476 0.08023273
000040 5a 0b 49 3d d8 fc 16 3c 0a 5f a3 bd 2a 0a c2 bb
       0.04908309 0.009215556 -0.07977112 -0.005921622
000050 75 5e 88 bd 36 78 28 bb f9 50 87 bd 82 8d 42 bd
       -0.06658641 -0.0025706417 -0.06607241 -0.047498234
000060 e4 61 13 3c c9 7e 1b 3d b0 cc c5 bc 44 3f 9b bc
       0.008995507 0.03796271 -0.024145454 -0.018951066
000070 68 2d 07 3d a8 b2 4e bc 89 6e b4 bd 3c 7f 7f bd
       0.033002287 -0.012615837 -0.088101454 -0.0623772
000080 21 65 0d bd 64 7a 0a 3d a6 23 96 bc ab 4b 94 bd
       -0.034520272 0.033808127 -0.018327545 -0.07240995
000090 9c 1b 76 3c b1 81 b0 3d 9f 0b 98 bd 9d eb 84 bd
       0.015021231 0.08618487 -0.074240915 -0.06490252
0000a0 9c b0 22 bd 7c 4f 11 bd 14 81 53 3d 08 13 0c bd
       -0.03971921 -0.035476193 0.05163677 -0.034197837
0000b0 ec 90 d5 3c b9 b9 14 bc fc 7d ea bc 70 6a 21 3c
       0.02607008 -0.009077483 -0.028624527 0.009852037
0000c0 16 0a 55 bb 69 7a a9 bd 28 b6 b4 bd e0 98 a3 3d
       -0.0032507232 -0.08275301 -0.08823806 0.07988143
0000d0 c5 91 36 bc 96 55 71 3d d6 9f ad 3d 1c 2b 07 bd
       -0.011143153 0.05891951 0.08477752 -0.033000097
0000e0 a6 cc b8 3c fc 53 21 3d be 7e 88 bd e8 21 aa bd
       0.022558521 0.039386734 -0.06664799 -0.08307248
0000f0 b9 e9 2c bd aa 6e 30 3d b5 90 43 bd 69 1d b4 bd
       -0.042215083 0.043074287 -0.047745425 -0.08794672

weight f4 [16, 64]
000000 e0 a9 99 3b 9a 07 f6 3d 88 ef 93 bd e0 2a 3a bd
       0.00468944 0.12013169 -0.07223421 -0.045451045
000010 4e 73 ea bd 04 a3 b2 3d 8c 57 82 bd 5a 17 fb bd
       -0.11447774 0.08722499 -0.063643545 -0.12260313
000020 44 23 c8 bd b4 47 3d 3d 52 d6 dd bd 9c 4c e2 3d
       -0.097723514 0.04621096 -0.10831894 0.11049768
000030 38 32 f8 3d 30 96 01 3c 94 74 2c 3d e8 7c ac bc
       0.121189535 0.007909343 0.042103365 -0.021055654
000040 78 5a 54 bd 1c 90 78 3d 32 a5 da bd f0 69 e4 bd
       -0.05184409 0.06068431 -0.1067604 -0.111530185
000050 74 91 63 3d f0 83 2c bc 48 4b 9f bc 1e 35 a4 3d
       0.055558637 -0.010529503 -0.019445077 0.08017944
000060 3c 41 f0 bd 70 1c 32 bc 4a 7d a6 bd 9e 72 db bd
       -0.117311925 -0.010871038 -0.08129366 -0.10715221
000070 60 1e 58 3c 98 03 80 bc f0 46 a3 bc 10 cb e3 bd
       0.013190836 -0.015626714 -0.019931287 -0.111227155
000080 4c 2a 00 3d c4 7f d5 3d b8 39 83 3c f0 20 a7 bd
       0.031290337 0.1042476 0.016018733 -0.08160579
000090 00 be ca b9 80 32 4c 3c 80 62 d9 3a c0 e3 2e 3d
       -0.00038670003 0.012463212 0.0016585141 0.042697668
0000a0 c8 9e 50 bd ca 2c b0 bd 22 f2 bd bd 12 8d d9 bd
       -0.050932676 -0.08602293 -0.09274699 -0.1062261
0000b0 c0 4a ef bc 08 ba 9b 3d d4 91 1f 3d b8 ea cc 3d
       -0.029210448 0.07603842 0.038957432 0.100057065
0000c0 88 78 ad 3d 18 89 ce 3c a8 c9 a8 3c e8 c1 ea bc
       0.08470255 0.025211856 0.02060397 -0.028656915
0000d0 c4 eb 92 3d f6 cc 80 bd b8 7c c6 bd 80 5d da 3b
       0.07173875 -0.06289093 -0.09691757 0.006663978
0000e0 62 a3 9e bd a6 b6 e4 bd 94 9e 61 bd b0 b8 6e bd
       -0.077460065 -0.1116765 -0.055082873 -0.0582816
0000f0 10 e7 73 bc 5e 09 b6 3d 2a 8b 9e bd 4a 6a c4 3d
       -0.014886633 0.088885054 -0.07741387 0.095905855
000100 40 06 6e bc dc b2 27 bd 44 9f 10 bd 98 60 cd 3c
       -0.014527857 -0.040942058 -0.035308138 0.025070474
000110 26 e5 82 3d 50 07 d3 bc 8e 71 d1 3d 76 62 be bd
       0.06391363 -0.025760323 0.10226737 -0.09296124
000120 16 2c e0 3d 48 c1 53 3d c2 5a 86 bd 58 74 15 3d
       0.10945909 0.051698 -0.065602794 0.036487907
000130 00 51 07 3c 7a 72 9b bd 54 9a 62 3d fc dc e0 bd
       0.008259058 -0.07590194 0.05532296 -0.109796494
000140 74 93 ec 3d 9c 08 6c 3d e4 63 ad bd b8 a9 8e bd
       0.11551562 0.057625398 -0.08466318 -0.06965965
000150 94 d5 48 bd ec 5d 38 3d 74 39 5a 3d de 80 a3 3d
       -0.04903181 0.045011446 0.053277448 0.07983564
000160 7c c5 7c bd 1e 89 ee 3d 30 23 81 bc a0 19 e1 3c
       -0.061711773 0.11647247 -0.015763849 0.02747804
000170 7c 87 27 bd b0 4c e9 bc 9e 3c e2 bd d0 0b 0a bc
       -0.040900692 -0.02847895 -0.11046718 -0.008425668
000180 d0 39 76 bd 00 7d 8e 3c 78 b2 88 3c b4 9a af 3d
       -0.060113728 0.017393589 0.016686663 0.08574429
000190 90 9c ea bc c0 73 77 3d 1e e3 8c bd 9e 61 95 bd
       -0.028639108 0.060413122 -0.06879257 -0.072940096
0001a0 60 8b 93 bb 1c 68 65 3d a8 dc c4 bd 50 70 8c 3c
       -0.004502699 0.05600749 -0.09612399 0.017143399
0001b0 58 e2 e9 3c f8 30 e4 bd f6 c9 f2 bd c0 6d 36 bd
       0.028550312 -0.111421525 -0.11854927 -0.04453826
0001c0 ec 34 5e 3d ce 0a be 3d 4a 6c 9f bd 18 90 d1 bc
       0.05424969 0.092794046 -0.077843264 -0.025581405
0001d0 18 08 e0 3d 5c 8f 7a 3d f4 3e e0 bd d4 86 78 3d
       0.10939044 0.061171874 -0.10949507 0.060675457
0001e0 60 37 20 3d 04 17 49 bd c2 ed 91 bd ae 60 8e bd
       0.03911531 -0.049094215 -0.07125427 -0.06952034
0001f0 f8 84 33 bd d4 6d b6 3d 50 b0 20 3d d6 ff 9a 3d
       -0.04382798 0.08907667 0.039230645 0.07568328
000200 78 b6 e3 3d 30 13 f6 3c 4c 7a 23 3d 38 17 a7 bc
       0.111187875 0.030038446 0.039911553 -0.020396814
000210 30 92 8a bd f6 6d ca bd e2 93 b0 bd 38 1c eb bd
       -0.06766164 -0.09884255 -0.086219564 -0.11479992
000220 b0 7b b5 bc 9c 28 99 3d b8 55 1a 3d c6 ce e5 3d
       -0.022153705 0.07478449 0.037679404 0.112210795
000230 f0 2e 34 3d 74 ff 57 3d ee f0 dd bd 30 35 84 bd
       0.043990076 0.052733853 -0.10836969 -0.06455457
000240 ae d2 cb 3d f8 2b ce 3d 08 94 f3 bd a0 d1 cd 3d
       0.09952293 0.1006698 -0.11893469 0.100497484
000250 20 d8 c7 bb 28 35 db bd 70 33 8a bc 90 21 b9 3d
       -0.006098762 -0.10703498 -0.01687023 0.09039605
000260 0c 85 6f 3d fa 90 fb bd 94 74 03 bd 60 46 e9 bc
       0.058476493 -0.122835115 -0.0320936 -0.02847594
000270 f0 33 5d bd f4 4c 76 3d ec e9 d6 bd 00 ad 29 bc
       -0.05400461 0.060131982 -0.10493836 -0.010356188
000280 e6 b2 c3 3d 60 c3 61 3d 3e c1 be bd 0a 23 c9 3d
       0.095556065 0.055117965 -0.09314202 0.09821136
000290 20 26 c8 bc 88 14 18 bd b4 74 26 bd 20 25 bb bc
       -0.024432242 -0.037128955 -0.04063864 -0.022844851
0002a0 be ca a4 bd 80 56 0b 3c 70 92 bc 3d c8 78 fe 3d
       -0.080464825 0.00850451 0.09207618 0.12425381
0002b0 00 f8 80 3b 68 c7 97 bc c4 fa ce bd 76 3c 88 3d
       0.003935814 -0.018527701 -0.101064235 0.06652157
0002c0 d8 f9 c9 3d 3e 78 ac bd 00 4e e3 3b 94 36 a3 3d
       0.09862107 -0.08421372 0.0069367886 0.07969394
0002d0 5e 92 ff bd 70 58 42 3c 6a 5c a1 bd a0 65 69 3c
       -0.12479089 0.011861905 -0.07878955 0.014245421
0002e0 00 73 82 3b 42 69 e7 bd 60 8e 03 bc ac 3a ca 3d
       0.003980994 -0.11299373 -0.00802955 0.09874472
0002f0 48 a2 87 3d 98 da ba 3c 00 ee a4 3d 78 65 bc bc
       0.066227496 0.022809312 0.080532074 -0.022997603
000300 7c 28 0d bd 08 80 58 bd d4 0a 06 3d e8 4e b5 bc
       -0.034462437 -0.052856475 0.03272517 -0.022132352
000310 6a dd 94 bd 3e 64 e7 bd 5a 8c 83 3d ba 89 fc bd
       -0.07268794 -0.112984166 0.06423254 -0.12330957
000320 c4 1b 54 bd c0 56 1d bd a0 85 67 3d c4 c8 9a 3d
       -0.051784292 -0.03841281 0.05652392 0.07557824
000330 a0 d3 e2 3c 0c b3 41 3d 20 f5 91 bc 14 e3 e8 3d
       0.027688801 0.047289893 -0.01781708 0.11371437
000340 80 52 f9 3c 80 4d e0 3a a0 c6 3d 3d 7c a3 d3 3d
       0.030434847 0.001711294 0.046332 0.103339165
000350 a2 a9 93 3d 58 ec 8e bd 0c df cf 3d 80 43 59 3b
       0.07210089 -0.06978673 0.10149965 0.0033151805
000360 cc e6 62 3d 10 af 30 3d 82 60 8d bd 42 b6 be 3d
       0.055395886 0.043135703 -0.06903173 0.09312107
000370 28 ab f6 bd 08 ea 85 3c 82 5f c6 bd d0 8e 3c 3c
       -0.12044364 0.016346946 -0.096861854 0.0115086585
000380 06 7e c3 bd f8 c1 d5 bc 54 c6 7d 3d 40 ce ce bc
       -0.095455214 -0.026093468 0.06195672 -0.025244832
000390 9c 4e 73 3d 60 bd c5 3d 78 d7 bb 3c 00 8f 2c bb
       0.05940114 0.09655261 0.022929892 -0.0026330352
0003a0 c4 07 96 3d 78 1a 2e 3d c0 f2 62 bc 70 9f 13 3d
       0.073257 0.04250571 -0.013851821 0.036040723
0003b0 50 95 f7 bd f8 b6 da bc b6 e2 c3 bd 4a f5 c7 3d
       -0.12089026 -0.026698574 -0.09564726 0.09763582
0003c0 dc 37 ab 3d de 73 82 bd c0 fe 8a bc 0a c7 84 3d
       0.08360264 -0.06369756 -0.016967177 0.06483276
0003d0 98 71 cc bd 40 89 78 3c fc ab e2 bd 1a 8d d7 3d
       -0.09982604 0.015169442 -0.1106796 0.1052496
0003e0 c4 66 1d 3d ba a4 dd 3d 1c b1 28 3d 12 1e c7 3d
       0.038428083 0.10822435 0.04118453 0.09722532
0003f0 8a 33 dc bd 92 5f d3 3d c0 39 ee 3d c0 21 3f 3c
       -0.10752018 0.10320963 0.11632109 0.0116657615

bias f4 [16]
000000 be 90 96 3d 6c 95 10 bd 9a 7e c3 bd c0 7f 2b 3b
       0.07351826 -0.03529875 -0.09545632 0.0026168674
000010 4a 1d dc 3d 28 ba 2f bd 0e 52 a9 3d 5c 0e 18 bd
       0.10747774 -0.04290214 0.08267604 -0.03712307
000020 c8 0c 83 3c 0a 50 8f 3d b0 ca 96 bd d4 f7 85 bd
       0.015997306 0.06997688 -0.07362878 -0.0654141
000030 74 98 82 3d b4 8a a7 3d 24 c1 7b 3d b0 9a fb 3d
       0.063767344 0.081807524 0.06146349 0.12285364

weight f4 [2, 16]
000000 f0 a1 d0 3d e2 16 1d 3e 28 42 cf 3d 50 d4 93 3d
       0.10187137 0.1534076 0.1012004 0.0721823
000010 9c 2c 98 3d 28 a8 69 be 90 bc 59 bd 40 99 b9 3b
       0.074303836 -0.22818053 -0.053158343 0.005664021
000020 20 d5 26 3d 80 00 9c 3d 84 d8 f9 3d 74 5f b2 bd
       0.040730596 0.07617283 0.121995 -0.087096125
000030 60 21 25 bd 78 0e 10 3e 4c 53 e2 3d 3c b7 1e 3e
       -0.040315032 0.1406802 0.11051044 0.15499586
000040 b8 6e 4d bd d8 f0 be 3d fc e7 26 be 68 50 55 bd
       -0.050154418 0.09323281 -0.16299433 -0.052078635
000050 c0 c2 30 3e 9a 5c 43 be f2 ae 00 3e c4 54 b0 bd
       0.17261791 -0.19078293 0.12566736 -0.08609918
000060 30 a4 42 3e d8 1c 51 3d 40 c5 2e bc 00 c8 3b bb
       0.19007945 0.0510529 -0.010667145 -0.0028653145
000070 02 15 53 be 58 45 ad 3d e0 71 5f be c8 19 0a 3e
       -0.20613483 0.08460492 -0.21820784 0.13486397

bias f4 [2]
000000 b4 80 34 3e 2c 49 3c be
       0.17627221 -0.18387288
